_________________________________________________________________
Layer (type)                 Output Shape              Param #   
=================================================================
conv2d_6 (Conv2D)            (None, 114, 114, 96)      2688      
_________________________________________________________________
max_pooling2d_4 (MaxPooling2 (None, 57, 57, 96)        0         
_________________________________________________________________
batch_normalization_4 (Batch (None, 57, 57, 96)        384       
_________________________________________________________________
conv2d_7 (Conv2D)            (None, 57, 57, 256)       614656    
_________________________________________________________________
max_pooling2d_5 (MaxPooling2 (None, 28, 28, 256)       0         
_________________________________________________________________
batch_normalization_5 (Batch (None, 28, 28, 256)       1024      
_________________________________________________________________
conv2d_8 (Conv2D)            (None, 28, 28, 384)       885120    
_________________________________________________________________
conv2d_9 (Conv2D)            (None, 28, 28, 384)       1327488   
_________________________________________________________________
conv2d_10 (Conv2D)           (None, 28, 28, 256)       884992    
_________________________________________________________________
max_pooling2d_6 (MaxPooling2 (None, 13, 13, 256)       0         
_________________________________________________________________
batch_normalization_6 (Batch (None, 13, 13, 256)       1024      
_________________________________________________________________
flatten_2 (Flatten)          (None, 43264)             0         
_________________________________________________________________
dense_4 (Dense)              (None, 10)                432650    
=================================================================
Total params: 4,150,026
Trainable params: 4,148,810
Non-trainable params: 1,216
_________________________________________________________________
Train on 20000 samples, validate on 2424 samples
Epoch 1/6
20000/20000 [==============================] - 67s 3ms/step - loss: 4.3878 - acc: 0.5060 - val_loss: 1.6415 - val_acc: 0.5347
…
